…
			NUM_STEPS = 500
			MAX_BUFFER_SIZE = 1000000
			REPLAY_BATCH_SIZE = 32
			TARGET_UPDATE_RATE = 0.0004
			dynamics_size = 8
			state_size = (8,)
			action_size = [4]
			env_name = LunarLander-v2
			rank = 0
			size = 17
			split = 17
			model = ddpg
			framework = pt
			train_prop = 1.0
			tcp_ports = []
			tcp_rank = 0
			num_envs = 1
			nsteps = 500000
			render = False
			trial = False
			icm = False
			rs = False
		stats = <src.utils.logger.Stats object at 0x7fec8f2e49e8> 
			mean_dict = {}
			sum_dict = {}
		eps = 1.0
		network = DDPGNetwork(
			  (actor_local): DDPGActor(
			    (layer1): Linear(in_features=8, out_features=512, bias=True)
			    (layer2): Linear(in_features=512, out_features=256, bias=True)
			    (layer3): Linear(in_features=256, out_features=256, bias=True)
			    (action_mu): Linear(in_features=256, out_features=4, bias=True)
			    (action_sig): Linear(in_features=256, out_features=4, bias=True)
			  )
			  (actor_target): DDPGActor(
			    (layer1): Linear(in_features=8, out_features=512, bias=True)
			    (layer2): Linear(in_features=512, out_features=256, bias=True)
			    (layer3): Linear(in_features=256, out_features=256, bias=True)
			    (action_mu): Linear(in_features=256, out_features=4, bias=True)
			    (action_sig): Linear(in_features=256, out_features=4, bias=True)
			  )
			  (critic_local): PTCritic(
			    (state_fc1): Linear(in_features=8, out_features=512, bias=True)
			    (state_fc2): Linear(in_features=512, out_features=1024, bias=True)
			    (state_fc3): Linear(in_features=1024, out_features=1024, bias=True)
			    (value): Linear(in_features=1024, out_features=4, bias=True)
			  )
			  (critic_target): PTCritic(
			    (state_fc1): Linear(in_features=8, out_features=512, bias=True)
			    (state_fc2): Linear(in_features=512, out_features=1024, bias=True)
			    (state_fc3): Linear(in_features=1024, out_features=1024, bias=True)
			    (value): Linear(in_features=1024, out_features=4, bias=True)
			  )
			) 
			discrete = True
			training = True
			tau = 0.0004
			name = ddpg
			stats = <src.utils.logger.Stats object at 0x7fec8f2e4978> 
				mean_dict = {}
				sum_dict = {}
			config = <src.utils.config.Config object at 0x7fec98804c50> 
				TRIAL_AT = 1000
				SAVE_AT = 1
				SEED = 0
				REG_LAMBDA = 1e-06
				LEARN_RATE = 0.0001
				DISCOUNT_RATE = 0.99
…
