…
			TARGET_UPDATE_RATE = 0.0004
			BATCH_SIZE = 32
			PPO_EPOCHS = 2
			ENTROPY_WEIGHT = 0.01
			CLIP_PARAM = 0.05
			dynamics_size = 8
			state_size = (8,)
			action_size = [4]
			env_name = LunarLander-v2
			rank = 0
			size = 17
			split = 17
			model = ppo
			framework = pt
			train_prop = 1.0
			tcp_ports = []
			tcp_rank = 0
			num_envs = 1
			nsteps = 500000
			render = False
			trial = False
			icm = False
			rs = False
		stats = <src.utils.logger.Stats object at 0x7f775c66c898> 
			mean_dict = {}
			sum_dict = {}
		eps = 1.0
		network = PPONetwork(
			  (actor_local): PPOActor(
			    (layer1): Linear(in_features=8, out_features=512, bias=True)
			    (layer2): Linear(in_features=512, out_features=256, bias=True)
			    (layer3): Linear(in_features=256, out_features=256, bias=True)
			    (action_mu): Linear(in_features=256, out_features=4, bias=True)
			  )
			  (actor_target): PPOActor(
			    (layer1): Linear(in_features=8, out_features=512, bias=True)
			    (layer2): Linear(in_features=512, out_features=256, bias=True)
			    (layer3): Linear(in_features=256, out_features=256, bias=True)
			    (action_mu): Linear(in_features=256, out_features=4, bias=True)
			  )
			  (critic_local): PPOCritic(
			    (layer1): Linear(in_features=8, out_features=512, bias=True)
			    (layer2): Linear(in_features=512, out_features=1024, bias=True)
			    (layer3): Linear(in_features=1024, out_features=1024, bias=True)
			    (value): Linear(in_features=1024, out_features=1, bias=True)
			  )
			  (critic_target): PPOCritic(
			    (layer1): Linear(in_features=8, out_features=512, bias=True)
			    (layer2): Linear(in_features=512, out_features=1024, bias=True)
			    (layer3): Linear(in_features=1024, out_features=1024, bias=True)
			    (value): Linear(in_features=1024, out_features=1, bias=True)
			  )
			) 
			training = True
			tau = 0.0004
			name = ppo
			stats = <src.utils.logger.Stats object at 0x7f775c66c7f0> 
				mean_dict = {}
				sum_dict = {}
			config = <src.utils.config.Config object at 0x7f775ca16a58> 
				TRIAL_AT = 1000
				SAVE_AT = 1
				SEED = 0
				REG_LAMBDA = 1e-06
				LEARN_RATE = 0.0001
				DISCOUNT_RATE = 0.99
				ADVANTAGE_DECAY = 0.95
…
