…
			EPS_DECAY = 0.998
			NUM_STEPS = 500
			MAX_BUFFER_SIZE = 1000000
			REPLAY_BATCH_SIZE = 32
			TARGET_UPDATE_RATE = 0.0004
			dynamics_size = 8
			state_size = (8,)
			action_size = [4]
			env_name = LunarLander-v2
			rank = 0
			size = 17
			split = 17
			model = sac
			framework = pt
			train_prop = 1.0
			tcp_ports = []
			tcp_rank = 0
			num_envs = 1
			nsteps = 500000
			render = False
			trial = False
			icm = False
			rs = False
		stats = <src.utils.logger.Stats object at 0x7f27ec0b2898> 
			mean_dict = {}
			sum_dict = {}
		eps = 1.0
		network = SACNetwork(
			  (actor_local): SACActor(
			    (layer1): Linear(in_features=8, out_features=512, bias=True)
			    (layer2): Linear(in_features=512, out_features=256, bias=True)
			    (layer3): Linear(in_features=256, out_features=256, bias=True)
			    (action_mu): Linear(in_features=256, out_features=4, bias=True)
			    (action_sig): Linear(in_features=256, out_features=4, bias=True)
			  )
			  (actor_target): SACActor(
			    (layer1): Linear(in_features=8, out_features=512, bias=True)
			    (layer2): Linear(in_features=512, out_features=256, bias=True)
			    (layer3): Linear(in_features=256, out_features=256, bias=True)
			    (action_mu): Linear(in_features=256, out_features=4, bias=True)
			    (action_sig): Linear(in_features=256, out_features=4, bias=True)
			  )
			  (critic_local): SACCritic(
			    (net_state): Linear(in_features=8, out_features=512, bias=True)
			    (net_action): Linear(in_features=4, out_features=512, bias=True)
			    (net_layer1): Linear(in_features=1024, out_features=1024, bias=True)
			    (net_layer2): Linear(in_features=1024, out_features=1024, bias=True)
			    (q_value): Linear(in_features=1024, out_features=1, bias=True)
			  )
			  (critic_target): SACCritic(
			    (net_state): Linear(in_features=8, out_features=512, bias=True)
			    (net_action): Linear(in_features=4, out_features=512, bias=True)
			    (net_layer1): Linear(in_features=1024, out_features=1024, bias=True)
			    (net_layer2): Linear(in_features=1024, out_features=1024, bias=True)
			    (q_value): Linear(in_features=1024, out_features=1, bias=True)
			  )
			) 
			discrete = False
			training = True
			tau = 0.0004
			name = sac
			stats = <src.utils.logger.Stats object at 0x7f27ec0b27f0> 
				mean_dict = {}
				sum_dict = {}
			config = <src.utils.config.Config object at 0x7f27ec471a58> 
				TRIAL_AT = 1000
				SAVE_AT = 1
				SEED = 0
				REG_LAMBDA = 1e-06
				LEARN_RATE = 0.0001
				DISCOUNT_RATE = 0.99
…
