…
			NUM_STEPS = 500
			MAX_BUFFER_SIZE = 100000
			REPLAY_BATCH_SIZE = 32
			TARGET_UPDATE_RATE = 0.0004
			dynamics_size = 13
			state_size = (80,)
			action_size = (3,)
			env_name = CarRacing-v1
			rank = 0
			size = 17
			split = 17
			model = ddpg
			framework = pt
			train_prop = 1.0
			tcp_ports = <list len=17>
			tcp_rank = 0
			num_envs = 1
			nsteps = 1000000
			render = False
			trial = False
			icm = False
			rs = False
		stats = <src.utils.logger.Stats object at 0x7f6fe1d4a390> 
			mean_dict = {}
			sum_dict = {}
		eps = 1.0
		network = DDPGNetwork(
			  (actor_local): DDPGActor(
			    (layer1): Linear(in_features=80, out_features=512, bias=True)
			    (layer2): Linear(in_features=512, out_features=256, bias=True)
			    (layer3): Linear(in_features=256, out_features=256, bias=True)
			    (action_mu): Linear(in_features=256, out_features=3, bias=True)
			    (action_sig): Linear(in_features=256, out_features=3, bias=True)
			  )
			  (actor_target): DDPGActor(
			    (layer1): Linear(in_features=80, out_features=512, bias=True)
			    (layer2): Linear(in_features=512, out_features=256, bias=True)
			    (layer3): Linear(in_features=256, out_features=256, bias=True)
			    (action_mu): Linear(in_features=256, out_features=3, bias=True)
			    (action_sig): Linear(in_features=256, out_features=3, bias=True)
			  )
			  (critic_local): DDPGCritic(
			    (net_state): Linear(in_features=80, out_features=512, bias=True)
			    (net_action): Linear(in_features=3, out_features=512, bias=True)
			    (net_layer1): Linear(in_features=1024, out_features=1024, bias=True)
			    (net_layer2): Linear(in_features=1024, out_features=1024, bias=True)
			    (q_value): Linear(in_features=1024, out_features=1, bias=True)
			  )
			  (critic_target): DDPGCritic(
			    (net_state): Linear(in_features=80, out_features=512, bias=True)
			    (net_action): Linear(in_features=3, out_features=512, bias=True)
			    (net_layer1): Linear(in_features=1024, out_features=1024, bias=True)
			    (net_layer2): Linear(in_features=1024, out_features=1024, bias=True)
			    (q_value): Linear(in_features=1024, out_features=1, bias=True)
			  )
			) 
			discrete = False
			training = True
			tau = 0.0004
			name = ddpg
			stats = <src.utils.logger.Stats object at 0x7f6fe1d4a250> 
				mean_dict = {}
				sum_dict = {}
			config = <src.utils.config.Config object at 0x7f6fe816b550> 
				TRIAL_AT = 1000
				SAVE_AT = 1
				SEED = 0
				REG_LAMBDA = 1e-06
				LEARN_RATE = 0.0001
				DISCOUNT_RATE = 0.99
…
